…
2022-05-08 03:09:08.317084: I tensorflow/stream_executor/cuda/cuda_gpu_executor.cc:936] successful NUMA node read from SysFS had negative value (-1), but there must be at least one NUMA node, so returning NUMA node zero
2022-05-08 03:09:08.318442: I tensorflow/stream_executor/cuda/cuda_gpu_executor.cc:936] successful NUMA node read from SysFS had negative value (-1), but there must be at least one NUMA node, so returning NUMA node zero
2022-05-08 03:09:08.319971: I tensorflow/core/common_runtime/gpu/gpu_device.cc:1525] Created device /job:localhost/replica:0/task:0/device:GPU:0 with 41318 MB memory:  -> device: 0, name: NVIDIA RTX A6000, pci bus id: 0000:06:00.0, compute capability: 8.6
  0                -1  1      7040  models.common.Conv                      [3, 64, 6, 2, 2]              
  1                -1  1     73984  models.common.Conv                      [64, 128, 3, 2]               
  2                -1  1    156928  models.common.C3                        [128, 128, 3]                 
  3                -1  1    295424  models.common.Conv                      [128, 256, 3, 2]              
  4                -1  1   1118208  models.common.C3                        [256, 256, 6]                 
  5                -1  1   1180672  models.common.Conv                      [256, 512, 3, 2]              
  6                -1  1   6433792  models.common.C3                        [512, 512, 9]                 
  7                -1  1   3540480  models.common.Conv                      [512, 768, 3, 2]              
  8                -1  1   5611008  models.common.C3                        [768, 768, 3]                 
  9                -1  1   7079936  models.common.Conv                      [768, 1024, 3, 2]             
 10                -1  1   9971712  models.common.C3                        [1024, 1024, 3]               
 11                -1  1   2624512  models.common.SPPF                      [1024, 1024, 5]               
 12                -1  1    787968  models.common.Conv                      [1024, 768, 1, 1]             
 13                -1  1         0  torch.nn.modules.upsampling.Upsample    [None, 2, 'nearest']          
 14           [-1, 8]  1         0  models.common.Concat                    [1]                           
 15                -1  1   6200832  models.common.C3                        [1536, 768, 3, False]         
 16                -1  1    394240  models.common.Conv                      [768, 512, 1, 1]              
 17                -1  1         0  torch.nn.modules.upsampling.Upsample    [None, 2, 'nearest']          
 18           [-1, 6]  1         0  models.common.Concat                    [1]                           
 19                -1  1   2757632  models.common.C3                        [1024, 512, 3, False]         
 20                -1  1    131584  models.common.Conv                      [512, 256, 1, 1]              
 21                -1  1         0  torch.nn.modules.upsampling.Upsample    [None, 2, 'nearest']          
 22           [-1, 4]  1         0  models.common.Concat                    [1]                           
 23                -1  1    690688  models.common.C3                        [512, 256, 3, False]          
 24                -1  1    590336  models.common.Conv                      [256, 256, 3, 2]              
 25          [-1, 20]  1         0  models.common.Concat                    [1]                           
 26                -1  1   2495488  models.common.C3                        [512, 512, 3, False]          
 27                -1  1   2360320  models.common.Conv                      [512, 512, 3, 2]              
 28          [-1, 16]  1         0  models.common.Concat                    [1]                           
 29                -1  1   5807616  models.common.C3                        [1024, 768, 3, False]         
 30                -1  1   5309952  models.common.Conv                      [768, 768, 3, 2]              
 31          [-1, 12]  1         0  models.common.Concat                    [1]                           
 32                -1  1  10496000  models.common.C3                        [1536, 1024, 3, False]        
 33  [23, 26, 29, 32]  1    653820  models.yolo.Detect                      [80, [[19, 27, 44, 40, 38, 94], [96, 68, 86, 152, 180, 137], [140, 301, 303, 264, 238, 542], [436, 615, 739, 380, 925, 792]], [256, 512, 768, 1024], [1280, 1280]]
2022-05-08 03:09:09.420245: I tensorflow/stream_executor/cuda/cuda_dnn.cc:368] Loaded cuDNN version 8303
2022-05-08 03:09:09.675628: I tensorflow/stream_executor/cuda/cuda_blas.cc:1786] TensorFloat-32 will be used for the matrix multiplication. This will only be logged once.
…
