…
2022-05-08 21:40:19.350642: I tensorflow/stream_executor/cuda/cuda_gpu_executor.cc:936] successful NUMA node read from SysFS had negative value (-1), but there must be at least one NUMA node, so returning NUMA node zero
2022-05-08 21:40:19.350840: I tensorflow/stream_executor/cuda/cuda_gpu_executor.cc:936] successful NUMA node read from SysFS had negative value (-1), but there must be at least one NUMA node, so returning NUMA node zero
2022-05-08 21:40:19.351217: I tensorflow/core/common_runtime/gpu/gpu_device.cc:1525] Created device /job:localhost/replica:0/task:0/device:GPU:0 with 42991 MB memory:  -> device: 0, name: NVIDIA RTX A6000, pci bus id: 0000:06:00.0, compute capability: 8.6
  0                -1  1      5280  models.common.Conv                      [3, 48, 6, 2, 2]              
  1                -1  1     41664  models.common.Conv                      [48, 96, 3, 2]                
  2                -1  1     65280  models.common.C3                        [96, 96, 2]                   
  3                -1  1    166272  models.common.Conv                      [96, 192, 3, 2]               
  4                -1  1    444672  models.common.C3                        [192, 192, 4]                 
  5                -1  1    664320  models.common.Conv                      [192, 384, 3, 2]              
  6                -1  1   2512896  models.common.C3                        [384, 384, 6]                 
  7                -1  1   2655744  models.common.Conv                      [384, 768, 3, 2]              
  8                -1  1   4134912  models.common.C3                        [768, 768, 2]                 
  9                -1  1   1476864  models.common.SPPF                      [768, 768, 5]                 
 10                -1  1    295680  models.common.Conv                      [768, 384, 1, 1]              
 11                -1  1         0  torch.nn.modules.upsampling.Upsample    [None, 2, 'nearest']          
 12           [-1, 6]  1         0  models.common.Concat                    [1]                           
 13                -1  1   1182720  models.common.C3                        [768, 384, 2, False]          
 14                -1  1     74112  models.common.Conv                      [384, 192, 1, 1]              
 15                -1  1         0  torch.nn.modules.upsampling.Upsample    [None, 2, 'nearest']          
 16           [-1, 4]  1         0  models.common.Concat                    [1]                           
 17                -1  1    296448  models.common.C3                        [384, 192, 2, False]          
 18                -1  1    332160  models.common.Conv                      [192, 192, 3, 2]              
 19          [-1, 14]  1         0  models.common.Concat                    [1]                           
 20                -1  1   1035264  models.common.C3                        [384, 384, 2, False]          
 21                -1  1   1327872  models.common.Conv                      [384, 384, 3, 2]              
 22          [-1, 10]  1         0  models.common.Concat                    [1]                           
 23                -1  1   4134912  models.common.C3                        [768, 768, 2, False]          
 24      [17, 20, 23]  1    343485  models.yolo.Detect                      [80, [[10, 13, 16, 30, 33, 23], [30, 61, 62, 45, 59, 119], [116, 90, 156, 198, 373, 326]], [192, 384, 768], [640, 640]]
2022-05-08 21:40:20.088863: I tensorflow/stream_executor/cuda/cuda_dnn.cc:368] Loaded cuDNN version 8101
2022-05-08 21:40:20.249437: I tensorflow/stream_executor/cuda/cuda_blas.cc:1786] TensorFloat-32 will be used for the matrix multiplication. This will only be logged once.
…
