…
2022-05-07 23:41:58.488211: I tensorflow/core/platform/cpu_feature_guard.cc:151] This TensorFlow binary is optimized with oneAPI Deep Neural Network Library (oneDNN) to use the following CPU instructions in performance-critical operations:  AVX2 FMA
To enable them in other operations, rebuild TensorFlow with the appropriate compiler flags.
2022-05-07 23:41:59.045432: I tensorflow/core/common_runtime/gpu/gpu_device.cc:1525] Created device /job:localhost/replica:0/task:0/device:GPU:0 with 44216 MB memory:  -> device: 0, name: Quadro RTX 8000, pci bus id: 0000:03:00.0, compute capability: 7.5
  0                -1  1      7040  models.common.Conv                      [3, 64, 6, 2, 2]              
  1                -1  1     73984  models.common.Conv                      [64, 128, 3, 2]               
  2                -1  1    156928  models.common.C3                        [128, 128, 3]                 
  3                -1  1    295424  models.common.Conv                      [128, 256, 3, 2]              
  4                -1  1   1118208  models.common.C3                        [256, 256, 6]                 
  5                -1  1   1180672  models.common.Conv                      [256, 512, 3, 2]              
  6                -1  1   6433792  models.common.C3                        [512, 512, 9]                 
  7                -1  1   4720640  models.common.Conv                      [512, 1024, 3, 2]             
  8                -1  1   9971712  models.common.C3                        [1024, 1024, 3]               
  9                -1  1   2624512  models.common.SPPF                      [1024, 1024, 5]               
 10                -1  1    525312  models.common.Conv                      [1024, 512, 1, 1]             
 11                -1  1         0  torch.nn.modules.upsampling.Upsample    [None, 2, 'nearest']          
 12           [-1, 6]  1         0  models.common.Concat                    [1]                           
 13                -1  1   2757632  models.common.C3                        [1024, 512, 3, False]         
 14                -1  1    131584  models.common.Conv                      [512, 256, 1, 1]              
 15                -1  1         0  torch.nn.modules.upsampling.Upsample    [None, 2, 'nearest']          
 16           [-1, 4]  1         0  models.common.Concat                    [1]                           
 17                -1  1    690688  models.common.C3                        [512, 256, 3, False]          
 18                -1  1    590336  models.common.Conv                      [256, 256, 3, 2]              
 19          [-1, 14]  1         0  models.common.Concat                    [1]                           
 20                -1  1   2495488  models.common.C3                        [512, 512, 3, False]          
 21                -1  1   2360320  models.common.Conv                      [512, 512, 3, 2]              
 22          [-1, 10]  1         0  models.common.Concat                    [1]                           
 23                -1  1   9971712  models.common.C3                        [1024, 1024, 3, False]        
 24      [17, 20, 23]  1    457725  models.yolo.Detect                      [80, [[10, 13, 16, 30, 33, 23], [30, 61, 62, 45, 59, 119], [116, 90, 156, 198, 373, 326]], [256, 512, 1024], [640, 640]]
2022-05-07 23:42:00.302966: I tensorflow/stream_executor/cuda/cuda_dnn.cc:368] Loaded cuDNN version 8101
Model: "model"
__________________________________________________________________________________________________
…
